Model: "sequential_1"
_________________________________________________________________
 Layer (type)                Output Shape              Param #   
=================================================================
 reshape_2 (Reshape)         (None, 28, 28, 1)         0         
                                                                 
 conv2d (Conv2D)             (None, 28, 28, 16)        160       
                                                                 
 max_pooling2d (MaxPooling2D  (None, 14, 14, 16)       0         
 )                                                               
                                                                 
 conv2d_1 (Conv2D)           (None, 14, 14, 32)        4640      
                                                                 
 max_pooling2d_1 (MaxPooling  (None, 7, 7, 32)         0         
 2D)                                                             
                                                                 
 conv2d_2 (Conv2D)           (None, 7, 7, 64)          18496     
                                                                 
 max_pooling2d_2 (MaxPooling  (None, 3, 3, 64)         0         
 2D)                                                             
                                                                 
 flatten (Flatten)           (None, 576)               0         
                                                                 
 dense (Dense)               (None, 128)               73856     
                                                                 
 dense_1 (Dense)             (None, 74)                9546      
                                                                 
=================================================================
Total params: 106,698
Trainable params: 106,698
Non-trainable params: 0
_________________________________________________________________

Total Training Samples: 1184000
Total Testing Samples: 296000
Samples per Class: 20000
Train/Test Split: 0.2
Epochs: 20
…
